…
buffersize (optional)\n    See `nditer` parameters of the same name\n\nReturns\n-------\niters : tuple of nditer\n    An nditer for each item in `axes`, outermost first\n\nSee Also\n--------\nnditer\n\nExamples\n--------\n\nBasic usage. Note how y is the \"flattened\" version of\n[a[:, 0, :], a[:, 1, 0], a[:, 2, :]] since we specified\nthe first iter's axes as [1]\n\n>>> a = np.arange(12).reshape(2, 3, 2)\n>>> i, j = np.nested_iters(a, [[1], [0, 2]], flags=[\"multi_index\"])\n>>> for x in i:\n...      print(i.multi_index)\n...      for y in j:\n...          print('', j.multi_index, y)\n(0,)\n (0, 0) 0\n (0, 1) 1\n (1, 0) 6\n (1, 1) 7\n(1,)\n (0, 0) 2\n (0, 1) 3\n (1, 0) 8\n (1, 1) 9\n(2,)\n (0, 0) 4\n (0, 1) 5\n (1, 0) 10\n (1, 1) 11",
            "repositoryUrl": "dlg_paletteGen.generated",
            "commitHash": "0.1",
            "paletteDownloadUrl": "",
            "dataHash": "f51165523ee5516cb57f771465878d5fa2775f48f610b3b6e4224f1fd6f1c093",
            "fields": [
                {
                    "name": "op",
                    "value": "",
                    "defaultValue": "",
                    "description": "ndarray or sequence of array_like     The array(s) to iterate over.  ",
…
